…
DEBUG_hg2 | etype : P2018-A2018
DEBUG_hg2 | etype : P2018-F2018
DEBUG_hg2 | etype : P2019-A2019
DEBUG_hg2 | etype : P2019-F2019
DEBUG_hg5 | k : AP | remove_append : True
DEBUG_hg5 | k : FP | remove_append : True
Involved label keys ['P', 'PP', 'PAP', 'PFP', 'PPP']
SeHGNN_mag(
  (embedings): ParameterDict(
      (P): Parameter containing: [torch.cuda.FloatTensor of size 128x256 (GPU 0)]
      (PAP): Parameter containing: [torch.cuda.FloatTensor of size 128x256 (GPU 0)]
      (PFP): Parameter containing: [torch.cuda.FloatTensor of size 128x256 (GPU 0)]
  )
  (feat_project_layers): Sequential(
    (0): Conv1d1x1()
    (1): LayerNorm((11, 584), eps=1e-05, elementwise_affine=True)
    (2): PReLU(num_parameters=1)
    (3): Dropout(p=0.5, inplace=False)
    (4): Conv1d1x1()
    (5): LayerNorm((11, 584), eps=1e-05, elementwise_affine=True)
    (6): PReLU(num_parameters=1)
    (7): Dropout(p=0.5, inplace=False)
  )
  (semantic_aggr_layers): Transformer(
    (query): Linear(in_features=584, out_features=146, bias=True)
    (key): Linear(in_features=584, out_features=146, bias=True)
    (value): Linear(in_features=584, out_features=584, bias=True)
    (att_drop): Dropout(p=0.0, inplace=False)
    (act): LeakyReLU(negative_slope=0.2)
  )
  (concat_project_layer): Linear(in_features=6424, out_features=584, bias=True)
  (res_fc): Linear(in_features=256, out_features=584, bias=False)
  (lr_output): Sequential(
    (0): Linear(in_features=584, out_features=584, bias=False)
    (1): BatchNorm1d(584, eps=1e-05, momentum=0.1, affine=True, track_running_stats=True)
    (2): PReLU(num_parameters=1)
    (3): Dropout(p=0.5, inplace=False)
    (4): Linear(in_features=584, out_features=349, bias=False)
    (5): BatchNorm1d(349, eps=1e-05, momentum=0.1, affine=True, track_running_stats=True)
  )
  (label_fc): Sequential(
    (0): Linear(in_features=349, out_features=584, bias=False)
    (1): BatchNorm1d(584, eps=1e-05, momentum=0.1, affine=True, track_running_stats=True)
    (2): PReLU(num_parameters=1)
    (3): Dropout(p=0.5, inplace=False)
    (4): Linear(in_features=584, out_features=584, bias=False)
    (5): BatchNorm1d(584, eps=1e-05, momentum=0.1, affine=True, track_running_stats=True)
    (6): PReLU(num_parameters=1)
    (7): Dropout(p=0.5, inplace=False)
    (8): Linear(in_features=584, out_features=584, bias=False)
    (9): BatchNorm1d(584, eps=1e-05, momentum=0.1, affine=True, track_running_stats=True)
    (10): PReLU(num_parameters=1)
    (11): Dropout(p=0.5, inplace=False)
    (12): Linear(in_features=584, out_features=349, bias=True)
  )
  (label_drop): Dropout(p=0.0, inplace=False)
  (prelu): PReLU(num_parameters=1)
  (dropout): Dropout(p=0.5, inplace=False)
  (input_drop): Dropout(p=0.1, inplace=False)
)
# Params: 11587515
Stage 0, Epoch 0, Time(s): 17.0716, estimated train loss 3.1855, acc 35.4386
Time: 1.1393506526947021, Val loss: 2.1837146282196045, Test loss: 2.209909677505493
…
