…
tensor(730071, device='cuda:0')
tensor(787610, device='cuda:0')
tensor(790194, device='cuda:0')
tensor(852706, device='cuda:0')
tensor(885742, device='cuda:0')
tensor(968113, device='cuda:0')
first ten test_nid : 
tensor(43768, device='cuda:0')
tensor(122141, device='cuda:0')
tensor(251239, device='cuda:0')
tensor(458801, device='cuda:0')
tensor(503557, device='cuda:0')
tensor(671042, device='cuda:0')
tensor(1068741, device='cuda:0')
tensor(1416999, device='cuda:0')
tensor(1848797, device='cuda:0')
tensor(1884478, device='cuda:0')
use rlu
R_GAMLP_RLU(
  (prelu): PReLU(num_parameters=1)
  (lr_att): Linear(in_features=2048, out_features=1, bias=True)
  (lr_output): FeedForwardNetII(
    (layers): ModuleList(
      (0): Dense(
        (bias): BatchNorm1d(1024, eps=1e-05, momentum=0.1, affine=True, track_running_stats=True)
      )
      (1): GraphConvolution(
        (bias): BatchNorm1d(1024, eps=1e-05, momentum=0.1, affine=True, track_running_stats=True)
      )
      (2): GraphConvolution(
        (bias): BatchNorm1d(1024, eps=1e-05, momentum=0.1, affine=True, track_running_stats=True)
      )
      (3): GraphConvolution(
        (bias): BatchNorm1d(1024, eps=1e-05, momentum=0.1, affine=True, track_running_stats=True)
      )
      (4): GraphConvolution(
        (bias): BatchNorm1d(1024, eps=1e-05, momentum=0.1, affine=True, track_running_stats=True)
      )
      (5): Dense(
        (bias): BatchNorm1d(172, eps=1e-05, momentum=0.1, affine=True, track_running_stats=True)
      )
    )
    (prelu): PReLU(num_parameters=1)
    (dropout): Dropout(p=0.5, inplace=False)
  )
  (process): ModuleList(
    (0): FeedForwardNet(
      (layers): ModuleList(
        (0): Linear(in_features=128, out_features=1024, bias=True)
        (1): Linear(in_features=1024, out_features=1024, bias=True)
      )
      (bns): ModuleList(
        (0): BatchNorm1d(1024, eps=1e-05, momentum=0.1, affine=True, track_running_stats=True)
      )
      (prelu): PReLU(num_parameters=1)
      (dropout): Dropout(p=0.5, inplace=False)
    )
    (1): FeedForwardNet(
      (layers): ModuleList(
        (0): Linear(in_features=128, out_features=1024, bias=True)
        (1): Linear(in_features=1024, out_features=1024, bias=True)
      )
      (bns): ModuleList(
        (0): BatchNorm1d(1024, eps=1e-05, momentum=0.1, affine=True, track_running_stats=True)
      )
      (prelu): PReLU(num_parameters=1)
      (dropout): Dropout(p=0.5, inplace=False)
    )
    (2): FeedForwardNet(
      (layers): ModuleList(
        (0): Linear(in_features=128, out_features=1024, bias=True)
        (1): Linear(in_features=1024, out_features=1024, bias=True)
      )
      (bns): ModuleList(
        (0): BatchNorm1d(1024, eps=1e-05, momentum=0.1, affine=True, track_running_stats=True)
      )
      (prelu): PReLU(num_parameters=1)
      (dropout): Dropout(p=0.5, inplace=False)
    )
    (3): FeedForwardNet(
      (layers): ModuleList(
        (0): Linear(in_features=128, out_features=1024, bias=True)
        (1): Linear(in_features=1024, out_features=1024, bias=True)
      )
      (bns): ModuleList(
        (0): BatchNorm1d(1024, eps=1e-05, momentum=0.1, affine=True, track_running_stats=True)
      )
      (prelu): PReLU(num_parameters=1)
      (dropout): Dropout(p=0.5, inplace=False)
    )
    (4): FeedForwardNet(
      (layers): ModuleList(
        (0): Linear(in_features=128, out_features=1024, bias=True)
        (1): Linear(in_features=1024, out_features=1024, bias=True)
      )
      (bns): ModuleList(
        (0): BatchNorm1d(1024, eps=1e-05, momentum=0.1, affine=True, track_running_stats=True)
      )
      (prelu): PReLU(num_parameters=1)
      (dropout): Dropout(p=0.5, inplace=False)
    )
    (5): FeedForwardNet(
      (layers): ModuleList(
        (0): Linear(in_features=128, out_features=1024, bias=True)
        (1): Linear(in_features=1024, out_features=1024, bias=True)
      )
      (bns): ModuleList(
        (0): BatchNorm1d(1024, eps=1e-05, momentum=0.1, affine=True, track_running_stats=True)
      )
      (prelu): PReLU(num_parameters=1)
      (dropout): Dropout(p=0.5, inplace=False)
    )
    (6): FeedForwardNet(
      (layers): ModuleList(
        (0): Linear(in_features=128, out_features=1024, bias=True)
        (1): Linear(in_features=1024, out_features=1024, bias=True)
      )
      (bns): ModuleList(
        (0): BatchNorm1d(1024, eps=1e-05, momentum=0.1, affine=True, track_running_stats=True)
      )
      (prelu): PReLU(num_parameters=1)
      (dropout): Dropout(p=0.5, inplace=False)
    )
  )
  (dropout): Dropout(p=0.5, inplace=False)
  (input_drop): Dropout(p=0.0, inplace=False)
  (att_drop): Dropout(p=0.0, inplace=False)
  (res_fc): Linear(in_features=128, out_features=1024, bias=True)
  (label_drop): Dropout(p=0.0, inplace=False)
  (label_fc): FeedForwardNet(
    (layers): ModuleList(
      (0): Linear(in_features=172, out_features=1024, bias=True)
      (1): Linear(in_features=1024, out_features=1024, bias=True)
      (2): Linear(in_features=1024, out_features=1024, bias=True)
      (3): Linear(in_features=1024, out_features=172, bias=True)
    )
    (bns): ModuleList(
      (0): BatchNorm1d(1024, eps=1e-05, momentum=0.1, affine=True, track_running_stats=True)
      (1): BatchNorm1d(1024, eps=1e-05, momentum=0.1, affine=True, track_running_stats=True)
      (2): BatchNorm1d(1024, eps=1e-05, momentum=0.1, affine=True, track_running_stats=True)
    )
    (prelu): PReLU(num_parameters=1)
    (dropout): Dropout(p=0.5, inplace=False)
  )
  (act): Sigmoid()
)
# Params: 16308751
Epoch 0, Time(s): 38.5236,Train loss: 0.0026, Train acc: 70.4446 
Epoch 1, Time(s): 29.1490,Train loss: 0.0018, Train acc: 85.3133 Epoch 1, Time(s): 30.4168, Val 0.6436, Best Epoch 1,Val 0.6436, Test 0.6061
…
