…
g.num_nodes : <bound method DGLHeteroGraph.num_nodes of Graph(num_nodes=111059956, num_edges=1615685872,
      ndata_schemes={'year': Scheme(shape=(1,), dtype=torch.int64), 'feat': Scheme(shape=(128,), dtype=torch.float32)}
      edata_schemes={})>
New graph generated! : 272.0301
172
111059956
Compute neighbor-averaged labels
Compute neighbor-averaged labels
Compute neighbor-averaged labels
Compute neighbor-averaged labels
Compute neighbor-averaged labels
Compute neighbor-averaged labels
Compute neighbor-averaged labels
Compute neighbor-averaged labels
Compute neighbor-averaged labels
use rlu
R_GAMLP_RLU(
  (prelu): PReLU(num_parameters=1)
  (lr_att): Linear(in_features=2048, out_features=1, bias=True)
  (lr_output): FeedForwardNetII(
    (layers): ModuleList(
      (0): Dense(
        (bias): BatchNorm1d(1024, eps=1e-05, momentum=0.1, affine=True, track_running_stats=True)
      )
      (1): GraphConvolution(
        (bias): BatchNorm1d(1024, eps=1e-05, momentum=0.1, affine=True, track_running_stats=True)
      )
      (2): GraphConvolution(
        (bias): BatchNorm1d(1024, eps=1e-05, momentum=0.1, affine=True, track_running_stats=True)
      )
      (3): GraphConvolution(
        (bias): BatchNorm1d(1024, eps=1e-05, momentum=0.1, affine=True, track_running_stats=True)
      )
      (4): GraphConvolution(
        (bias): BatchNorm1d(1024, eps=1e-05, momentum=0.1, affine=True, track_running_stats=True)
      )
      (5): Dense(
        (bias): BatchNorm1d(172, eps=1e-05, momentum=0.1, affine=True, track_running_stats=True)
      )
    )
    (prelu): PReLU(num_parameters=1)
    (dropout): Dropout(p=0.5, inplace=False)
  )
  (process): ModuleList(
    (0): FeedForwardNet(
      (layers): ModuleList(
        (0): Linear(in_features=128, out_features=1024, bias=True)
        (1): Linear(in_features=1024, out_features=1024, bias=True)
      )
      (bns): ModuleList(
        (0): BatchNorm1d(1024, eps=1e-05, momentum=0.1, affine=True, track_running_stats=True)
      )
      (prelu): PReLU(num_parameters=1)
      (dropout): Dropout(p=0.5, inplace=False)
    )
    (1): FeedForwardNet(
      (layers): ModuleList(
        (0): Linear(in_features=128, out_features=1024, bias=True)
        (1): Linear(in_features=1024, out_features=1024, bias=True)
      )
      (bns): ModuleList(
        (0): BatchNorm1d(1024, eps=1e-05, momentum=0.1, affine=True, track_running_stats=True)
      )
      (prelu): PReLU(num_parameters=1)
      (dropout): Dropout(p=0.5, inplace=False)
    )
    (2): FeedForwardNet(
      (layers): ModuleList(
        (0): Linear(in_features=128, out_features=1024, bias=True)
        (1): Linear(in_features=1024, out_features=1024, bias=True)
      )
      (bns): ModuleList(
        (0): BatchNorm1d(1024, eps=1e-05, momentum=0.1, affine=True, track_running_stats=True)
      )
      (prelu): PReLU(num_parameters=1)
      (dropout): Dropout(p=0.5, inplace=False)
    )
    (3): FeedForwardNet(
      (layers): ModuleList(
        (0): Linear(in_features=128, out_features=1024, bias=True)
        (1): Linear(in_features=1024, out_features=1024, bias=True)
      )
      (bns): ModuleList(
        (0): BatchNorm1d(1024, eps=1e-05, momentum=0.1, affine=True, track_running_stats=True)
      )
      (prelu): PReLU(num_parameters=1)
      (dropout): Dropout(p=0.5, inplace=False)
    )
    (4): FeedForwardNet(
      (layers): ModuleList(
        (0): Linear(in_features=128, out_features=1024, bias=True)
        (1): Linear(in_features=1024, out_features=1024, bias=True)
      )
      (bns): ModuleList(
        (0): BatchNorm1d(1024, eps=1e-05, momentum=0.1, affine=True, track_running_stats=True)
      )
      (prelu): PReLU(num_parameters=1)
      (dropout): Dropout(p=0.5, inplace=False)
    )
    (5): FeedForwardNet(
      (layers): ModuleList(
        (0): Linear(in_features=128, out_features=1024, bias=True)
        (1): Linear(in_features=1024, out_features=1024, bias=True)
      )
      (bns): ModuleList(
        (0): BatchNorm1d(1024, eps=1e-05, momentum=0.1, affine=True, track_running_stats=True)
      )
      (prelu): PReLU(num_parameters=1)
      (dropout): Dropout(p=0.5, inplace=False)
    )
    (6): FeedForwardNet(
      (layers): ModuleList(
        (0): Linear(in_features=128, out_features=1024, bias=True)
        (1): Linear(in_features=1024, out_features=1024, bias=True)
      )
      (bns): ModuleList(
        (0): BatchNorm1d(1024, eps=1e-05, momentum=0.1, affine=True, track_running_stats=True)
      )
      (prelu): PReLU(num_parameters=1)
      (dropout): Dropout(p=0.5, inplace=False)
    )
  )
  (dropout): Dropout(p=0.5, inplace=False)
  (input_drop): Dropout(p=0.0, inplace=False)
  (att_drop): Dropout(p=0.0, inplace=False)
  (res_fc): Linear(in_features=128, out_features=1024, bias=True)
  (label_drop): Dropout(p=0.0, inplace=False)
  (label_fc): FeedForwardNet(
    (layers): ModuleList(
      (0): Linear(in_features=172, out_features=1024, bias=True)
      (1): Linear(in_features=1024, out_features=1024, bias=True)
      (2): Linear(in_features=1024, out_features=1024, bias=True)
      (3): Linear(in_features=1024, out_features=172, bias=True)
    )
    (bns): ModuleList(
      (0): BatchNorm1d(1024, eps=1e-05, momentum=0.1, affine=True, track_running_stats=True)
      (1): BatchNorm1d(1024, eps=1e-05, momentum=0.1, affine=True, track_running_stats=True)
      (2): BatchNorm1d(1024, eps=1e-05, momentum=0.1, affine=True, track_running_stats=True)
    )
    (prelu): PReLU(num_parameters=1)
    (dropout): Dropout(p=0.5, inplace=False)
  )
  (act): Sigmoid()
)
# Params: 16308751
Epoch 0, Time(s): 28.6380,Train loss: 0.0051, Train acc: 58.9731 
Epoch 1, Time(s): 19.8936,Train loss: 0.0044, Train acc: 65.6341 Epoch 1, Time(s): 20.7345, Val 0.6721, Best Epoch 1,Val 0.6721, Test 0.6449
…
