…
0, 150, 150], temp=0.001, threshold=0.0, train_num_epochs=[0, 0, 0, 0], use_rlu=True, weight_decay=0)
Run 0 start training
# Nodes: 111059956
# Edges: 1615685872
# Train: 1207179
# Val: 125265
# Test: 214338
# Classes: 172

172
111059956
Compute neighbor-averaged labels
Compute neighbor-averaged labels
Compute neighbor-averaged labels
Compute neighbor-averaged labels
Compute neighbor-averaged labels
Compute neighbor-averaged labels
Compute neighbor-averaged labels
Compute neighbor-averaged labels
Compute neighbor-averaged labels
use rlu
R_GAMLP_RLU(
  (prelu): PReLU(num_parameters=1)
  (lr_att): Linear(in_features=2048, out_features=1, bias=True)
  (lr_output): FeedForwardNetII(
    (layers): ModuleList(
      (0): Dense(
        (bias): BatchNorm1d(1024, eps=1e-05, momentum=0.1, affine=True, track_running_stats=True)
      )
      (1): GraphConvolution(
        (bias): BatchNorm1d(1024, eps=1e-05, momentum=0.1, affine=True, track_running_stats=True)
      )
      (2): GraphConvolution(
        (bias): BatchNorm1d(1024, eps=1e-05, momentum=0.1, affine=True, track_running_stats=True)
      )
      (3): GraphConvolution(
        (bias): BatchNorm1d(1024, eps=1e-05, momentum=0.1, affine=True, track_running_stats=True)
      )
      (4): GraphConvolution(
        (bias): BatchNorm1d(1024, eps=1e-05, momentum=0.1, affine=True, track_running_stats=True)
      )
      (5): Dense(
        (bias): BatchNorm1d(172, eps=1e-05, momentum=0.1, affine=True, track_running_stats=True)
      )
    )
    (prelu): PReLU(num_parameters=1)
    (dropout): Dropout(p=0.5, inplace=False)
  )
  (process): ModuleList(
    (0): FeedForwardNet(
      (layers): ModuleList(
        (0): Linear(in_features=128, out_features=1024, bias=True)
        (1): Linear(in_features=1024, out_features=1024, bias=True)
      )
      (bns): ModuleList(
        (0): BatchNorm1d(1024, eps=1e-05, momentum=0.1, affine=True, track_running_stats=True)
      )
      (prelu): PReLU(num_parameters=1)
      (dropout): Dropout(p=0.5, inplace=False)
    )
    (1): FeedForwardNet(
      (layers): ModuleList(
        (0): Linear(in_features=128, out_features=1024, bias=True)
        (1): Linear(in_features=1024, out_features=1024, bias=True)
      )
      (bns): ModuleList(
        (0): BatchNorm1d(1024, eps=1e-05, momentum=0.1, affine=True, track_running_stats=True)
      )
      (prelu): PReLU(num_parameters=1)
      (dropout): Dropout(p=0.5, inplace=False)
    )
    (2): FeedForwardNet(
      (layers): ModuleList(
        (0): Linear(in_features=128, out_features=1024, bias=True)
        (1): Linear(in_features=1024, out_features=1024, bias=True)
      )
      (bns): ModuleList(
        (0): BatchNorm1d(1024, eps=1e-05, momentum=0.1, affine=True, track_running_stats=True)
      )
      (prelu): PReLU(num_parameters=1)
      (dropout): Dropout(p=0.5, inplace=False)
    )
    (3): FeedForwardNet(
      (layers): ModuleList(
        (0): Linear(in_features=128, out_features=1024, bias=True)
        (1): Linear(in_features=1024, out_features=1024, bias=True)
      )
      (bns): ModuleList(
        (0): BatchNorm1d(1024, eps=1e-05, momentum=0.1, affine=True, track_running_stats=True)
      )
      (prelu): PReLU(num_parameters=1)
      (dropout): Dropout(p=0.5, inplace=False)
    )
    (4): FeedForwardNet(
      (layers): ModuleList(
        (0): Linear(in_features=128, out_features=1024, bias=True)
        (1): Linear(in_features=1024, out_features=1024, bias=True)
      )
      (bns): ModuleList(
        (0): BatchNorm1d(1024, eps=1e-05, momentum=0.1, affine=True, track_running_stats=True)
      )
      (prelu): PReLU(num_parameters=1)
      (dropout): Dropout(p=0.5, inplace=False)
    )
    (5): FeedForwardNet(
      (layers): ModuleList(
        (0): Linear(in_features=128, out_features=1024, bias=True)
        (1): Linear(in_features=1024, out_features=1024, bias=True)
      )
      (bns): ModuleList(
        (0): BatchNorm1d(1024, eps=1e-05, momentum=0.1, affine=True, track_running_stats=True)
      )
      (prelu): PReLU(num_parameters=1)
      (dropout): Dropout(p=0.5, inplace=False)
    )
    (6): FeedForwardNet(
      (layers): ModuleList(
        (0): Linear(in_features=128, out_features=1024, bias=True)
        (1): Linear(in_features=1024, out_features=1024, bias=True)
      )
      (bns): ModuleList(
        (0): BatchNorm1d(1024, eps=1e-05, momentum=0.1, affine=True, track_running_stats=True)
      )
      (prelu): PReLU(num_parameters=1)
      (dropout): Dropout(p=0.5, inplace=False)
    )
  )
  (dropout): Dropout(p=0.5, inplace=False)
  (input_drop): Dropout(p=0.0, inplace=False)
  (att_drop): Dropout(p=0.0, inplace=False)
  (res_fc): Linear(in_features=128, out_features=1024, bias=True)
  (label_drop): Dropout(p=0.0, inplace=False)
  (label_fc): FeedForwardNet(
    (layers): ModuleList(
      (0): Linear(in_features=172, out_features=1024, bias=True)
      (1): Linear(in_features=1024, out_features=1024, bias=True)
      (2): Linear(in_features=1024, out_features=1024, bias=True)
      (3): Linear(in_features=1024, out_features=172, bias=True)
    )
    (bns): ModuleList(
      (0): BatchNorm1d(1024, eps=1e-05, momentum=0.1, affine=True, track_running_stats=True)
      (1): BatchNorm1d(1024, eps=1e-05, momentum=0.1, affine=True, track_running_stats=True)
      (2): BatchNorm1d(1024, eps=1e-05, momentum=0.1, affine=True, track_running_stats=True)
    )
    (prelu): PReLU(num_parameters=1)
    (dropout): Dropout(p=0.5, inplace=False)
  )
  (act): Sigmoid()
)
# Params: 16308751
Epoch 0, Time(s): 24.3026,Train loss: 0.0050, Train acc: 59.7459 
Epoch 1, Time(s): 23.4975,Train loss: 0.0043, Train acc: 66.2246 Epoch 1, Time(s): 24.2631, Val 0.6720, Best Epoch 1,Val 0.6720, Test 0.6476
…
